…
来管理MinIO服务，包括上传文件夹的能力。\n\n```bash\nmc cp --recursive local/folder play/mybucket\n```\n\n上述命令将本地的 `folder` 递归上传到名为 `mybucket` 的存储桶中。这要求你已配置 `mc` 并且有相应的别名 `play` 指向你的MinIO服务器。\n\n请根据你的具体情况选择恰当的方法，无论是编写Java代码或使用命令行工具。"
    },
    {
      "role": "user",
      "content": "java.lang.IllegalArgumentException: No Operation named [lstm] in the Graph\n\nModel: \"sequential\"\n_________________________________________________________________\n Layer (type)                Output Shape              Param #   \n=================================================================\n lstm (LSTM)                 (None, 5, 128)            86528     \n                                                                 \n dropout (Dropout)           (None, 5, 128)            0         \n                                                                 \n batch_normalization (BatchN  (None, 5, 128)           512       \n ormalization)                                                   \n                                                                 \n lstm_1 (LSTM)               (None, 64)                49408     \n                                                                 \n dropout_1 (Dropout)         (None, 64)                0         \n                                                                 \n batch_normalization_1 (Batc  (None, 64)               256       \n hNormalization)                                                 \n                                                                 \n dense (Dense)               (None, 256)               16640     \n                                                                 \n dropout_2 (Dropout)         (None, 256)               0         \n                                                                 \n dense_1 (Dense)             (None, 1)                 257       \n                                                                 \n=================================================================\nTotal params: 153,601\nTrainable params: 153,217\nNon-trainable params: 384\n_________________________________________________________________\nModel: \"sequential_1\"\n_________________________________________________________________\n Layer (type)                Output Shape              Param #   \n=================================================================\n lstm_2 (LSTM)               (None, 5, 128)            86528     \n                                                                 \n dropout_3 (Dropout)         (None, 5, 128)            0         \n                                                                 \n batch_normalization_2 (Batc  (None, 5, 128)           512       \n hNormalization)                                                 \n                                                                 \n lstm_3 (LSTM)               (None, 64)                49408     \n                                                                 \n dropout_4 (Dropout)         (None, 64)                0         \n                                                                 \n batch_normalization_3 (Batc  (None, 64)               256       \n hNormalization)                                                 \n                                                                 \n dense_2 (Dense)             (None, 256)               16640     \n                                                                 \n dropout_5 (Dropout)         (None, 256)               0         \n                                                                 \n dense_3 (Dense)             (None, 1)                 257       \n                                                                 \n=================================================================\nTotal params: 153,601\nTrainable params: 153,217\nNon-trainable params: 384\n_________________________________________________________________\n"
    },
    {
      "role": "assistant",
      "content": "这个错误信息`java.lang.IllegalArgumentException: No Operati
…
