…
算资源的需求。自注意力机制的计算复杂度是序列长度的平方（O(n^2)），因此，输入长度的增加会导致模型训练和推理所需时间和内存成倍增加。这限制了在有限计算资源下，模型可处理的最大序列长度。\n\n4. **训练与推理效率**：与计算资源需求相关，较长的上下文长度可能会减慢模型的训练和推理速度，尤其在大规模数据集上训练时。因此，在设计模型和选择超参数时，需要平衡上下文长度和计算效率。\n\n### 如何管理上下文长度的挑战？\n\n- **稀疏化的自注意力**：为了管理计算复杂度，可以采用稀疏化的自注意力机制，例如只在序列中的一部分位置上计算注意力权重，或者使用局部注意力模型。\n\n- **有效的序列分割**：对于超出模型最大上下文长度的序列，可以采用分割策略将输入序列分割成较短的片段，并适当处理边界上下文，以尽可能保留信息。\n\n- **模型和算法优化**：通过技术创新和算法优化，如使用深度可分离卷积、循环层来减少模型对长序列处理的计算资源需求。\n\n上下文长度是影响Transformer及其衍生模型性能的关键超参数之一，合理设置和优化上下文长度对于提高模型的性能、适用性和计算效率都至关重要。"
    },
    {
      "role": "user",
      "content": "给定模型结构：Transformer(\n  (tok_embeddings): Embedding(32000, 4096)\n  (dropout): Dropout(p=0.0, inplace=False)\n  (layers): ModuleList(\n    (0-31): 32 x TransformerBlock(\n      (attention): Attention(\n        (wq): Linear(in_features=4096, out_features=4096, bias=False)\n        (wk): Linear(in_features=4096, out_features=4096, bias=False)\n        (wv): Linear(in_features=4096, out_features=4096, bias=False)\n        (wo): Linear(in_features=4096, out_features=4096, bias=False)\n        (attn_dropout): Dropout(p=0.0, inplace=False)\n        (resid_dropout): Dropout(p=0.0, inplace=False)\n      )\n      (feed_forward): FeedForward(\n        (w1): Linear(in_features=4096, out_features=11008, bias=False)\n        (w2): Linear(in_features=11008, out_features=4096, bias=False)\n        (w3): Linear(in_features=4096, out_features=11008, bias=False)\n        (dropout): Dropout(p=0.0, inplace=False)\n      )\n      (attention_norm): RMSNorm()\n      (ffn_norm): RMSNorm()\n    )\n  )\n  (norm): RMSNorm()\n  (output): Linear(in_features=4096, out_features=32000, bias=False)\n)计算他的上下文长度，给出计算过程"
    },
    {
      "role": "assistant",
      "content": "实际上，上下文长度（即模型能够处理的最大输入序列长度）在Transformer模型结构描述中并没有直接给出。上下文长度并不由模型的内部参数直接决定，而是由模型设计时设置的输入长度限制所决定。\n\n从给出的模型结构中，我们可以看到多个层次的信息，例如词嵌入的维度、自注意力机制的细节、前馈网络的配置，但这些参数告诉我们的是模型如何处理输入数据，而不是它可以处理多长的输入。\n\n在实际的Transformer模型实现中，上下文长度主要由以下因素限制：\n\n1. **模型的输入嵌入层**：尽管嵌入层可以映射任意长度的序列到一个固定的维度空间
…
3. **模型或处理流程报错**：\n在某些情况下，如果未实现适当的截断或分割策略，输入超出最大上下文长度可能导致模型或处理流程因无法处理该输入而报错。这通常发生在模型或系统未被适当配置以自动处理超长输入的情况下。\n\n### 4. **性能下降**：\n即使某些模型在技术上能够接受超长输入（例如，通过某种形式的动态序列处理能力），性能（包括准确率和/或生成质量）可能会因为模型未在处理如此长序列的任务上进行优化而下降。\n\n### 如何处理超长输入？\n\n- **预处理**：在数据输入模型之前，通过截断或分割序列的预处理步骤来避免超长输入。\n  \n- **模型修改**：对于特定的应用，可以考虑修改模型架构，以提高对长序列的处理能力，例如采用层次化注意力机制或改进的长序列处理算法。\n\n- **批量处理**：对于分割的序列，可以使用批量处理来并行处理多段序列，以提高效率。\n\n- **注意力窗口**：对于某些模型，可以采用局部注意力机制或滑动窗口方法来限制每次计算注意力时考虑的序列范围，从而允许处理理论上更长的序列。\n\n处理超长输入时应根据具体任务的需求和模型的能力灵活选择最合适的策略。"
    },
    {
      "role": "user",
      "content": "给定模型结构：Transformer(\n(tok_embeddings): Embedding(32000, 4096)\n(dropout): Dropout(p=0.0, inplace=False)\n(layers): ModuleList(\n(0-31): 32 x TransformerBlock(\n(attention): Attention(\n(wq): Linear(in_features=4096, out_features=4096, bias=False)\n(wk): Linear(in_features=4096, out_features=4096, bias=False)\n(wv): Linear(in_features=4096, out_features=4096, bias=False)\n(wo): Linear(in_features=4096, out_features=4096, bias=False)\n(attn_dropout): Dropout(p=0.0, inplace=False)\n(resid_dropout): Dropout(p=0.0, inplace=False)\n)\n(feed_forward): FeedForward(\n(w1): Linear(in_features=4096, out_features=11008, bias=False)\n(w2): Linear(in_features=11008, out_features=4096, bias=False)\n(w3): Linear(in_features=4096, out_features=11008, bias=False)\n(dropout): Dropout(p=0.0, inplace=False)\n)\n(attention_norm): RMSNorm()\n(ffn_norm): RMSNorm()\n)\n)\n(norm): RMSNorm()\n(output): Linear(in_features=4096, out_features=32000, bias=False)\n) 帮我生成一份训练代码"
    },
    {
      "role": "assistant",
      "content": "要根据您给出的模型结构生成一个基本的训练循环，我们需要补充一些信息和假设。例如，我们将这个模型视为一个基于Transformer架构的文本生成任务模型（类似于GPT）。下面是一个简单化的PyTorch代码框架，用于模拟训练过程。请注意，实际生产代码会更加复杂，并且需要考虑数据预处理、验证、测试、保存和加载模型、调整超参数等方面。\n\n```python\nimport torch\nfrom torch import nn\nfrom torch.utils.data import DataLoader, Dataset\nimport torc
…
\n其中，\\(z'_i\\) 是旋转后的向量，\\(\\theta_p\\) 是与位置 \\(p\\) 相关的旋转角度，\\(i\\) 是复数单位。\n\n通过这种方式，RoPE直接在嵌入向量上编码了位置信息，并且通过维持序列内元素之间的相对位置关系，可以提高模型处理有顺序数据的能力。\n\n### RoPE的优点\n\n- **相对位置敏感**：RoPE自然地捕捉了序列中元素的相对位置信息，有利于处理语言中的长距离依赖问题。\n- **可扩展性**：与传统的加性位置编码（如Transformer中的位置编码）不同，RoPE更适合处理长序列，理论上可以处理无限长的序列。\n- **效率**：RoPE可以通过矩阵运算高效实施，易于集成到现有的Transformer模型中。\n\n### 实践应用\n\nRoPE的实现要求改动Transformer架构中的自注意力机制，以确保位置编码能通过旋转方式融入到自注意力计算中。虽然RoPE增加了模型处理位置信息的能力，但它也需要仔细的实现和调试才能在具体任务中达到预期效果。由于其相对较新，研究者和开发者可能需要进行额外的实验来充分利用RoPE的潜力。"
    },
    {
      "role": "user",
      "content": "该模型结构是否包含RoPE：Transformer(\n(tok_embeddings): Embedding(32000, 4096)\n(dropout): Dropout(p=0.0, inplace=False)\n(layers): ModuleList(\n(0-31): 32 x TransformerBlock(\n(attention): Attention(\n(wq): Linear(in_features=4096, out_features=4096, bias=False)\n(wk): Linear(in_features=4096, out_features=4096, bias=False)\n(wv): Linear(in_features=4096, out_features=4096, bias=False)\n(wo): Linear(in_features=4096, out_features=4096, bias=False)\n(attn_dropout): Dropout(p=0.0, inplace=False)\n(resid_dropout): Dropout(p=0.0, inplace=False)\n)\n(feed_forward): FeedForward(\n(w1): Linear(in_features=4096, out_features=11008, bias=False)\n(w2): Linear(in_features=11008, out_features=4096, bias=False)\n(w3): Linear(in_features=4096, out_features=11008, bias=False)\n(dropout): Dropout(p=0.0, inplace=False)\n)\n(attention_norm): RMSNorm()\n(ffn_norm): RMSNorm()\n)\n)\n(norm): RMSNorm()\n(output): Linear(in_features=4096, out_features=32000, bias=False)\n) "
    },
    {
      "role": "assistant",
      "content": "基于您提供的模型结构，直接从结构描述中识别出是否包含Rotary Position Encoding（RoPE）并不直观。在传统的Transformer结构描述中，细节通常包括词嵌入（`Embedding`）、自注意力机制（`Attention`）、前馈网络（`FeedForward`）、以及可能的归一化层（如`LayerNorm`或`RMSNorm`）等组件。然而，RoPE作为一种特定的位置编码方案，其实现细节可能不会直接体现在最高级的模型结构描述中。\n\nRoPE是通过对嵌入向量应用旋转操作来编码位置信息的，它通常与模型的输入（即词嵌入层之后）直接相关联，或内嵌
…
