…
dim]`，其中 `num_tokens` 可以是图像数乘以补丁数。\n- `batch_size` 是输入张量的批次大小。\n- `num_tokens` 是输入张量的 \"token\" 数量，其中每个 \"token\" 可能由多个补丁 (sub-tokens) 组成。\n\n如果 `num_patches` 等于1，即不使用补丁，则位置编码（`pe`）简单地从预先生成的位置编码表（`pos_table_1`）中取出并添加到原始的特征（`x`）中。\n\n如果 `num_patches` 大于1，则需要对每个图像以及它们的补丁进行编码。\n- `'pe1'` 是用于图像级别位置编码的。\n- `'pe2'` 是用于补丁级别位置编码的。\n\n最后，将位置编码添加到输入特征中，并保持在正确的形状中，以便可以在网络的其余部分使用它们。\n\n这种位置编码是 Transformer 和类似模型中的关键技术，帮助模型理解输入序列的顺序。在图像处理中将图像拆分为补丁的应用需要在图像级别和补丁级别对位置信息进行编码，以便模型能够区分不同图像中相同位置的补丁以及同一图像内不同位置的补丁。"
    },
    {
      "role": "user",
      "content": " Sequential(\n    (0): Bottleneck(\n      (conv1): Conv2d(1024, 512, kernel_size=(1, 1), stride=(1, 1), bias=False)\n      (bn1): BatchNorm2d(512, eps=1e-05, momentum=0.1, affine=True, track_running_stats=True)\n      (conv2): Conv2d(512, 512, kernel_size=(3, 3), stride=(1, 1), padding=(1, 1), bias=False)\n      (bn2): BatchNorm2d(512, eps=1e-05, momentum=0.1, affine=True, track_running_stats=True)\n      (conv3): Sequential(\n        (0): BlurPool(\n          (pad): ReflectionPad2d((1, 2, 1, 2))\n        )\n        (1): Conv2d(512, 2048, kernel_size=(1, 1), stride=(1, 1), bias=False)\n      )\n      (bn3): BatchNorm2d(2048, eps=1e-05, momentum=0.1, affine=True, track_running_stats=True)\n      (relu): ReLU(inplace=True)\n      (downsample): Sequential(\n        (0): BlurPool(\n          (pad): ReflectionPad2d((1, 2, 1, 2))\n        )\n        (1): Conv2d(1024, 2048, kernel_size=(1, 1), stride=(1, 1), bias=False)\n        (2): BatchNorm2d(2048, eps=1e-05, momentum=0.1, affine=True, track_running_stats=True)\n      )\n    )\n    (1): Bottleneck(\n      (conv1): Conv2d(2048, 512, kernel_size=(1, 1), stride=(1, 1), bias=False)\n      (bn1): BatchNorm2d(512, eps=1e-05, momentum=0.1, affine=True, track_running_stats=True)\n      (conv2): Conv2d(512, 512, kernel_size=(3, 3), stride=(1, 1), padding=(1, 1), bias=False)\n      (bn2): BatchNorm2d(512, eps=1e-05, momentum=0.1, affine=True, track_running_stats=True)\n      (conv3): Conv2d(512, 2048, kernel_size=(1, 1), stride=(1, 1), bias=False)\n      (bn3): BatchNorm2d(2048, eps=1e-05, momentum=0.1, affine=True, track_running_stats=True)\n      (relu): ReLU(inplace=True)\n    )\n    (2): Bottleneck(\n      (conv1): Conv2d(2048, 512, kernel_size=(1, 1), stride=(1, 1), bias=False)\n      (bn1): BatchNorm2d(512, eps=1e-05, momentum=0.1, affine=True, track_running_stats=True)\n      (conv2): Conv2d(512, 512, kernel_size=(3, 3), stride=(1, 1), padding=(1, 1), bias=False)\n      (bn2): BatchNorm2d(512, eps=1e-05, momentum=0.1, affine=True, track_running_stats=True)\n      (conv3): Conv2d(512, 2048, kernel_size=(1, 1), stride=(1, 1), bias=False)\n      (bn3): BatchNorm2d(2048, eps=1e-05, momentum=0.1, affine=True, track_running_stats=True)\n      (relu): ReLU(inplace=True)\n    )\n这里的Bottleneck之间是什么关系"
    },
    {
      "role": "assistant",
      "content": "在这段代码中，`Bottleneck` 是神经网络中的一个块（block），通常用于构建深度卷积神经网络，如ResNet（残差网络）中。它被称为 \"Bottleneck\" 是因为内部的卷积层会先减少维度，然后再增加维度，这有点像瓶颈的形状。\n\n在序列中的每个 `Bottleneck` 实例都包含以下层：\n- `conv1`：1x1 的卷积，用于减少通道数。\n- `bn1`：批量归一化（BatchNor
…
