…
6, 24, 24]`？\n\n这是一个数学校验：\n1.  **Hidden Size**: 4096\n2.  **Attention Heads**: 32\n3.  **Head Dim**: 4096 / 32 = 128\n4.  **RoPE 作用维度**: 通常 RoPE 是作用在 Query/Key 的向量上的。Qwen/Llama 的 RoPE 实现通常处理的是 Complex Number（复数）或者将维度对半切分。\n5.  **Rotary Input Dim**: 在我们使用的 `Qwen3VLTextRotaryEmbedding` 代码中，输入的 `inv_freq` 长度是 `head_dim / 2 = 64`。\n6.  **Sum Check**: `16 + 24 + 24 = 64`。这正好填满旋转位置编码所需的维度。如果你的 Head Dim 变了，这个配置也得变。"
    },
    {
      "role": "user",
      "content": "因为后面我可能需要基于qwen3 vl现有的权重进行转换，所以请你参考权重的形状来设置配置参数：VideoChatFlashQwenForCausalLM(\n  (model): VideoChatFlashQwenModel(\n    (embed_tokens): Embedding(152064, 3584)\n    (layers): ModuleList(\n      (0): Qwen2MLADecoderLayer(\n        (self_attn): MLAAttention(\n          (q_proj): Linear(in_features=3584, out_features=7168, bias=True)\n          (kv_a_proj_with_mqa): Linear(in_features=3584, out_features=768, bias=True)\n          (kv_b_proj): Linear(in_features=640, out_features=7168, bias=False)\n          (o_proj): Linear(in_features=3584, out_features=3584, bias=False)\n        )\n        (mlp): Qwen2MLP(\n          (gate_proj): Linear(in_features=3584, out_features=18944, bias=False)\n          (up_proj): Linear(in_features=3584, out_features=18944, bias=False)\n          (down_proj): Linear(in_features=18944, out_features=3584, bias=False)\n          (act_fn): SiLUActivation()\n        )\n        (input_layernorm): Qwen2RMSNorm((3584,), eps=1e-05)\n        (post_attention_layernorm): Qwen2RMSNorm((3584,), eps=1e-05)\n      )\n      (1): Qwen2MLADecoderLayer(\n        (self_attn): MLAAttention(\n          (q_proj): Linear(in_features=3584, out_features=7168, bias=True)\n          (kv_a_proj_with_mqa): Linear(in_features=3584, out_features=384, bias=True)\n          (kv_b_proj): Linear(in_features=256, out_features=7168, bias=False)\n          (o_proj): Linear(in_features=3584, out_features=3584, bias=False)\n        )\n        (mlp): Qwen2MLP(\n          (gate_proj): Linear(in_features=3584, out_features=18944, bias=False)\n          (up_proj): Linear(in_features=3584, out_features=18944, bias=False)\n          (down_proj): Linear(in_features=18944, out_features=3584, bias=False)\n          (act_fn): SiLUActivation()\n        )\n        (input_layernorm): Qwen2RMSNorm((3584,), eps=1e-05)\n        (post_attention_layernorm): Qwen2RMSNorm((3584,), eps=1e-05)\n      )\n      (2): Qwen2MLADecoderLayer(\n        (self_attn): MLAAttention(\n          (q_proj): Linear(in_features=3584, out_features=7168, bias=True)\n          (kv_a_proj_with_mqa): Linear(in_features=3584, out_features=512, bias=True)\n          (kv_b_proj): Linear(in_features=384, out_features=7168, bias=False)\n          (o_proj): Linear(in_features=3584, out_features=3584, bias=False)\n        )\n        (mlp): Qwen2MLP(\n          (gate_proj): Linear(in_features=3584, out_features=18944, bias=False)\n          (up_proj): Linear(in_features=3584, out_features=18944, bias=False)\n          (down_proj): Linear(in_features=18944, out_features=3584, bias=False)\n          (act_fn): SiLUActivation()\n        )\n        (input_layernorm): Qwen2RMSNorm((3584,), eps=1e-05)\n        (post_attention_layernorm): Qwen2RMSNorm((3584,), eps=1e-05)\n      )\n      (3-4): 2 x Qwen2MLADecoderLayer(\n        (self_attn): MLAAttention(\n          (q_proj): Linear(in_features=3584, out_features=7168, bias=True)\n          (kv_a_proj_with_mqa): Linear(in_features=3584, out_features=576, bias=True)\n          (kv_b_proj): Linear(in_features=448, out_features=7168, bias=False)\n          (o_proj): Linear(in_features=3584, out_features=3584, bias=False)\n        )\n        (mlp): Qwen2MLP(\n          (gate_proj): Linear(in_features=3584, out_features=18944, bias=False)\n          (up_proj): Linear(in_features=3584, out_features=18944, bias=False)\n          (down_proj): Linear(in_features=18944, out_features=3584, bias=False)\n          (act_fn): SiLUActivation()\n        )\n        (input_layernorm): Qwen2RMSNorm((3584,), eps=1e-05)\n        (post_attention_layernorm): Qwen2RMSNorm((3584,), eps=1e-05)\n      )\n      (5): Qwen2MLADecoderLayer(\n        (self_attn): MLAAttention(\n          (q_proj): Linear(in_features=3584, out_features=7168, bias=True)\n          (kv_a_proj_with_mqa): Linear(in_features=3584, out_features=512, bias=True)\n          (kv_b_proj): Linear(in_features=384, out_features=7168, bias=False)\n          (o_proj): Linear(in_features=3584, out_features=3584, bias=False)\n        )\n        (mlp): Qwen2MLP(\n          (gate_proj): Linear(in_features=3584, out_features=18944, bias=False)\n          (up_proj): Linear(in_features=3584, out_features=18944, bias=False)\n          (down_proj): Linear(in_features=18944, out_features=3584, bias=False)\n          (act_fn): SiLUActivation()\n        )\n        (input_layernorm): Qwen2RMSNorm((3584,), eps=1e-05)\n        (post_attention_layernorm): Qwen2RMSNorm((3584,), eps=1e-05)\n      )\n      (6): Qwen2MLADecoderLayer(\n        (self_attn): MLAAttention(\n          (q_proj): Linear(in_features=3584, out_features=7168, bias=True)\n          (kv_a_proj_with_mqa): Linear(in_features=3584, out_features=576, bias=True)\n          (kv_b_proj): Linear(in_features=448, out_features=7168, bias=False)\n          (o_proj): Linear(in_features=3584, out_features=3584, bias=False)\n        )\n        (mlp): Qwen2MLP(\n          (gate_proj): Linear(in_features=3584, out_features=18944, bias=False)\n          (up_proj): Linear(in_features=3584, out_features=18944, bias=False)\n          (down_proj): Linear(in_features=18944, out_features=3584, bias=False)\n          (act_fn): SiLUActivation()\n        )\n        (input_layernorm): Qwen2RMSNorm((3584,), eps=1e-05)\n        (post_attention_layernorm): Qwen2RMSNorm((3584,), eps=1e-05)\n      )\n      (7): Qwen2MLADecoderLayer(\n        (self_attn): MLAAttention(\n          (q_proj): Linear(in_features=3584, out_features=7168, bias=True)\n          (kv_a_proj_with_mqa): Linear(in_features=3584, out_features=512, bias=True)\n          (kv_b_proj): Linear(in_features=384, out_features=7168, bias=False)\n          (o_proj): Linear(in_features=3584, out_features=3584, bias=False)\n        )\n        (mlp): Qwen2MLP(\n          (gate_proj): Linear(in_features=3584, out_features=18944, bias=False)\n          (up_proj): Linear(in_features=3584, out_features=18944, bias=False)\n          (down_proj): Linear(in_features=18944, out_features=3584, bias=False)\n          (act_fn): SiLUActivation()\n        )\n        (input_layernorm): Qwen2RMSNorm((3584,), eps=1e-05)\n        (post_attention_layernorm): Qwen2RMSNorm((3584,), eps=1e-05)\n      )\n      (8-10): 3 x Qwen2MLADecoderLayer(\n        (self_attn): MLAAttention(\n          (q_proj): Linear(in_features=3584, out_features=7168, bias=True)\n          (kv_a_proj_with_mqa): Linear(in_features=3584, out_features=640, bias=True)\n          (kv_b_proj): Linear(in_features=512, out_features=7168, bias=False)\n          (o_proj): Linear(in_features=3584, out_features=3584, bias=False)\n        )\n        (mlp): Qwen2MLP(\n          (gate_proj): Linear(in_features=3584, out_features=18944, bias=False)\n          (up_proj): Linear(in_features=3584, out_features=18944, bias=False)\n          (down_proj): Linear(in_features=18944, out_features=3584, bias=False)\n          (act_fn): SiLUActivation()\n        )\n        (input_layernorm): Qwen2RMSNorm((3584,), eps=1e-05)\n        (post_attention_layernorm): Qwen2RMSNorm((3584,), eps=1e-05)\n      )\n      (11-12): 2 x Qwen2MLADecoderLayer(\n        (self_attn): MLAAttention(\n          (q_proj): Linear(in_features=3584, out_features=7168, bias=True)\n          (kv_a_proj_with_mqa): Linear(in_features=3584, out_features=512, bias=True)\n          (kv_b_proj): Linear(in_features=384, out_features=7168, bias=False)\n          (o_proj): Linear(in_features=3584, out_features=3584, bias=False)\n        )\n        (mlp): Qwen2MLP(\n          (gate_proj): Linear(in_features=3584, out_features=18944, bias=False)\n          (up_proj): Linear(in_features=3584, out_features=18944, bias=False)\n          (down_proj): Linear(in_features=18944, out_features=3584, bias=False)\n          (act_fn): SiLUActivation()\n        )\n        (input_layernorm): Qwen2RMSNorm((3584,), eps=1e-05)\n        (post_attention_layernorm): Qwen2RMSNorm((3584,), eps=1e-05)\n      )\n      (13-14): 2 x Qwen2MLADecoderLayer(\n        (self_attn): MLAAttention(\n          (q_proj): Linear(in_features=3584, out_features=7168, bias=True)\n          (kv_a_proj_with_mqa): Linear(in_features=3584, out_features=640, bias=True)\n          (kv_b_proj): Linear(in_features=512, out_features=7168, bias=False)\n          (o_proj): Linear(in_features=3584, out_features=3584, bias=False)\n        )\n        (mlp): Qwen2MLP(\n          (gate_proj): Linear(in_features=3584, out_features=18944, bias=False)\n          (up_proj): Linear(in_features=3584, out_features=18944, bias=False)\n          (down_proj): Linear(in_features=18944, out_features=3584, bias=False)\n          (act_fn): SiLUActivation()\n        )\n        (input_layernorm): Qwen2RMSNorm((3584,), eps=1e-05)\n        (post_attention_layernorm): Qwen2RMSNorm((3584,), eps=1e-05)\n      )\n      (15-17): 3 x Qwen2MLADecoderLayer(\n        (self_attn): MLAAttention(\n          (q_proj): Linear(in_features=3584, out_features=7168, bias=True)\n          (kv_a_proj_with_mqa): Linear(in_features=3584, out_features=512, bias=True)\n          (kv_b_proj): Linear(in_features=384, out_features=7168, bias=False)\n          (o_proj): Linear(in_features=3584, out_features=3584, bias=False)\n        )\n        (mlp): Qwen2MLP(\n          (gate_proj): Linear(in_features=3584, out_features=18944, bias=False)\n          (up_proj): Linear(in_features=3584, out_features=18944, bias=False)\n          (down_proj): Linear(in_features=18944, out_features=3584, bias=False)\n          (act_fn): SiLUActivation()\n        )\n        (input_layernorm): Qwen2RMSNorm((3584,), eps=1e-05)\n        (post_attention_layernorm): Qwen2RMSNorm((3584,), eps=1e-05)\n      )\n      (18-19): 2 x Qwen2MLADecoderLayer(\n        (self_attn): MLAAttention(\n          (q_proj): Linear(in_features=3584, out_features=7168, bias=True)\n          (kv_a_proj_with_mqa): Linear(in_features=3584, out_features=640, bias=True)\n          (kv_b_proj): Linear(in_features=512, out_features=7168, bias=False)\n          (o_proj): Linear(in_features=3584, out_features=3584, bias=False)\n        )\n        (mlp): Qwen2MLP(\n          (gate_proj): Linear(in_features=3584, out_features=18944, bias=False)\n          (up_proj): Linear(in_features=3584, out_features=18944, bias=False)\n          (down_proj): Linear(in_features=18944, out_features=3584, bias=False)\n          (act_fn): SiLUActivation()\n        )\n        (input_layernorm): Qwen2RMSNorm((3584,), eps=1e-05)\n        (post_attention_layernorm): Qwen2RMSNorm((3584,), eps=1e-05)\n      )\n      (20): Qwen2MLADecoderLayer(\n        (self_attn): MLAAttention(\n          (q_proj): Linear(in_features=3584, out_features=7168, bias=True)\n          (kv_a_proj_with_mqa): Linear(in_features=3584, out_features=512, bias=True)\n          (kv_b_proj): Linear(in_features=384, out_features=7168, bias=False)\n          (o_proj): Linear(in_features=3584, out_features=3584, bias=False)\n        )\n        (mlp): Qwen2MLP(\n          (gate_proj): Linear(in_features=3584, out_features=18944, bias=False)\n          (up_proj): Linear(in_features=3584, out_features=18944, bias=False)\n          (down_proj): Linear(in_features=18944, out_features=3584, bias=False)\n          (act_fn): SiLUActivation()\n        )\n        (input_layernorm): Qwen2RMSNorm((3584,), eps=1e-05)\n        (post_attention_layernorm): Qwen2RMSNorm((3584,), eps=1e-05)\n      )\n      (21): Qwen2MLADecoderLayer(\n        (self_attn): MLAAttention(\n          (q_proj): Linear(in_features=3584, out_features=7168, bias=True)\n          (kv_a_proj_with_mqa): Linear(in_features=3584, out_features=384, bias=True)\n          (kv_b_proj): Linear(in_features=256, out_features=7168, bias=False)\n          (o_proj): Linear(in_features=3584, out_features=3584, bias=False)\n        )\n        (mlp): Qwen2MLP(\n          (gate_proj): Linear(in_features=3584, out_features=18944, bias=False)\n          (up_proj): Linear(in_features=3584, out_features=18944, bias=False)\n          (down_proj): Linear(in_features=18944, out_features=3584, bias=False)\n          (act_fn): SiLUActivation()\n        )\n        (input_layernorm): Qwen2RMSNorm((3584,), eps=1e-05)\n        (post_attention_layernorm): Qwen2RMSNorm((3584,), eps=1e-05)\n      )\n      (22): Qwen2MLADecoderLayer(\n        (self_attn): MLAAttention(\n          (q_proj): Linear(in_features=3584, out_features=7168, bias=True)\n          (kv_a_proj_with_mqa): Linear(in_features=3584, out_features=576, bias=True)\n          (kv_b_proj): Linear(in_features=448, out_features=7168, bias=False)\n          (o_proj): Linear(in_features=3584, out_features=3584, bias=False)\n        )\n        (mlp): Qwen2MLP(\n          (gate_proj): Linear(in_features=3584, out_features=18944, bias=False)\n          (up_proj): Linear(in_features=3584, out_features=18944, bias=False)\n          (down_proj): Linear(in_features=18944, out_features=3584, bias=False)\n          (act_fn): SiLUActivation()\n        )\n        (input_layernorm): Qwen2RMSNorm((3584,), eps=1e-05)\n        (post_attention_layernorm): Qwen2RMSNorm((3584,), eps=1e-05)\n      )\n      (23): Qwen2MLADecoderLayer(\n        (self_attn): MLAAttention(\n          (q_proj): Linear(in_features=3584, out_features=7168, bias=True)\n          (kv_a_proj_with_mqa): Linear(in_features=3584, out_features=512, bias=True)\n          (kv_b_proj): Linear(in_features=384, out_features=7168, bias=False)\n          (o_proj): Linear(in_features=3584, out_features=3584, bias=False)\n        )\n        (mlp): Qwen2MLP(\n          (gate_proj): Linear(in_features=3584, out_features=18944, bias=False)\n          (up_proj): Linear(in_features=3584, out_features=18944, bias=False)\n          (down_proj): Linear(in_features=18944, out_features=3584, bias=False)\n          (act_fn): SiLUActivation()\n        )\n        (input_layernorm): Qwen2RMSNorm((3584,), eps=1e-05)\n        (post_attention_layernorm): Qwen2RMSNorm((3584,), eps=1e-05)\n      )\n      (24): Qwen2MLADecoderLayer(\n        (self_attn): MLAAttention(\n          (q_proj): Linear(in_features=3584, out_features=7168, bias=True)\n          (kv_a_proj_with_mqa): Linear(in_features=3584, out_features=384, bias=True)\n          (kv_b_proj): Linear(in_features=256, out_features=7168, bias=False)\n          (o_proj): Linear(in_features=3584, out_features=3584, bias=False)\n        )\n        (mlp): Qwen2MLP(\n          (gate_proj): Linear(in_features=3584, out_features=18944, bias=False)\n          (up_proj): Linear(in_features=3584, out_features=18944, bias=False)\n          (down_proj): Linear(in_features=18944, out_features=3584, bias=False)\n          (act_fn): SiLUActivation()\n        )\n        (input_layernorm): Qwen2RMSNorm((3584,), eps=1e-05)\n        (post_attention_layernorm): Qwen2RMSNorm((3584,), eps=1e-05)\n      )\n      (25): Qwen2MLADecoderLayer(\n        (self_attn): MLAAttention(\n          (q_proj): Linear(in_features=3584, out_features=7168, bias=True)\n          (kv_a_proj_with_mqa): Linear(in_features=3584, out_features=512, bias=True)\n          (kv_b_proj): Linear(in_features=384, out_features=7168, bias=False)\n          (o_proj): Linear(in_features=3584, out_features=3584, bias=False)\n        )\n        (mlp): Qwen2MLP(\n          (gate_proj): Linear(in_features=3584, out_features=18944, bias=False)\n          (up_proj): Linear(in_features=3584, out_features=18944, bias=False)\n          (down_proj): Linear(in_features=18944, out_features=3584, bias=False)\n          (act_fn): SiLUActivation()\n        )\n        (input_layernorm): Qwen2RMSNorm((3584,), eps=1e-05)\n        (post_attention_layernorm): Qwen2RMSNorm((3584,), eps=1e-05)\n      )\n      (26-27): 2 x Qwen2MLADecoderLayer(\n        (self_attn): MLAAttention(\n          (q_proj): Linear(in_features=3584, out_features=7168, bias=True)\n          (kv_a_proj_with_mqa): Linear(in_features=3584, out_features=384, bias=True)\n          (kv_b_proj): Linear(in_features=256, out_features=7168, bias=False)\n          (o_proj): Linear(in_features=3584, out_features=3584, bias=False)\n        )\n        (mlp): Qwen2MLP(\n          (gate_proj): Linear(in_features=3584, out_features=18944, bias=False)\n          (up_proj): Linear(in_features=3584, out_features=18944, bias=False)\n          (down_proj): Linear(in_features=18944, out_features=3584, bias=False)\n          (act_fn): SiLUActivation()\n        )\n        (input_layernorm): Qwen2RMSNorm((3584,), eps=1e-05)\n        (post_attention_layernorm): Qwen2RMSNorm((3584,), eps=1e-05)\n      )\n    )\n    (norm): Qwen2RMSNorm((3584,), eps=1e-05)\n    (rotary_emb): Qwen2RotaryEmbedding()\n    (vision_tower): UMTVisionTower(\n      (vision_tower): PretrainVisionTransformer(\n        (encoder): PretrainVisionTransformerEncoder(\n          (patch_embed): PatchEmbed(\n            (proj): Conv3d(3, 1024, kernel_size=(1, 16, 16), stride=(1, 16, 16))\n          )\n          (blocks): ModuleList(\n            (0-22): 23 x Block(\n              (norm1): LayerNorm((1024,), eps=1e-06, elementwise_affine=True)\n              (attn): Attention(\n                (qkv): Linear(in_features=1024, out_features=3072, bias=False)\n                (proj): Linear(in_features=1024, out_features=1024, bias=True)\n                (proj_drop): Dropout(p=0.0, inplace=False)\n              )\n              (drop_path): Identity()\n              (norm2): LayerNorm((1024,), eps=1e-06, elementwise_affine=True)\n              (mlp): Mlp(\n                (fc1): Linear(in_features=1024, out_features=4096, bias=True)\n                (act): GELU(approximate='none')\n                (fc2): Linear(in_features=4096, out_features=1024, bias=True)\n                (drop): Dropout(p=0.0, inplace=False)\n              )\n            )\n          )\n          (vision_layernorm): LayerNorm((1024,), eps=1e-12, elementwise_affine=True)\n        )\n      )\n    )\n    (mm_projector): ToMe16_mlp_hd64(\n      (mlp): Sequential(\n        (0): Linear(in_features=1024, out_features=3584, bias=True)\n        (1): GELU(approximate='none')\n        (2): Linear(in_features=3584, out_features=3584, bias=True)\n      )\n    )\n  )\n  (lm_head): Linear(in_features=3584, out_features=152064, bias=False)\n)】"
    },
    {
      "role": "assistant",
      "content": "这是一个非常关键的信息。你提供的权重结构属于 **Qwen2.5 (7B规模)** 的变体，且使用了 **MLA (Multi-Head Latent Attention)** 架构（注意看 `Qwen2MLADecoderLayer` 和 `kv_a_proj`, `kv_b_proj`）。\n\n这意味着**标准的 Llama/QwenAttention 无法直接加载这些权重**。你需要确保你的 HSA 代码（`SWADecoderLayer`）能够支持 MLA，或者你已经在做权重转换。\n\n基于你提供的模型结构打印信息，配置参数必须严格匹配以下数值。\n\n
…
果这个值 `> 0`，恭喜你！这意味着 **Image -> Vision Model -> Projection -> Embedding Merge -> HSA -> Loss** 这条整个链路是通的，梯度可以回传。\n    *   如果这个值是 `0`，说明你在 `masked_scatter` 或者 `get_image_features` 的地方使用了 `.detach()` 或者重新创建了 Tensor，导致计算图断裂。\n\n3.  **Loss 是否为 NaN**：\n    *   如果是 NaN，可能是初始化权重太大（Config 里的 `initializer_range`），或者没有正确处理 Padding Mask。但在 Dummy Test 里只要不报错就行。\n\n如果这个脚本能跑通，说明你的代码逻辑在**结构上是完美的**，可以开始加载真实权重进行下一步工作了。"
    },
    {
      "role": "user",
      "content": "这个是qwen3 vl的模型架构：✅ 模型加载成功！\n📊 模型结构:\nQwen3VLModel(\n  (visual): Qwen3VLVisionModel(\n    (patch_embed): Qwen3VLVisionPatchEmbed(\n      (proj): Conv3d(3, 1152, kernel_size=(2, 16, 16), stride=(2, 16, 16))\n    )\n    (pos_embed): Embedding(2304, 1152)\n    (rotary_pos_emb): Qwen3VLVisionRotaryEmbedding()\n    (blocks): ModuleList(\n      (0-26): 27 x Qwen3VLVisionBlock(\n        (norm1): LayerNorm((1152,), eps=1e-06, elementwise_affine=True)\n        (norm2): LayerNorm((1152,), eps=1e-06, elementwise_affine=True)\n        (attn): Qwen3VLVisionAttention(\n          (qkv): Linear(in_features=1152, out_features=3456, bias=True)\n          (proj): Linear(in_features=1152, out_features=1152, bias=True)\n        )\n        (mlp): Qwen3VLVisionMLP(\n          (linear_fc1): Linear(in_features=1152, out_features=4304, bias=True)\n          (linear_fc2): Linear(in_features=4304, out_features=1152, bias=True)\n          (act_fn): GELUTanh()\n        )\n      )\n    )\n    (merger): Qwen3VLVisionPatchMerger(\n      (norm): LayerNorm((1152,), eps=1e-06, elementwise_affine=True)\n      (linear_fc1): Linear(in_features=4608, out_features=4608, bias=True)\n      (act_fn): GELU(approximate='none')\n      (linear_fc2): Linear(in_features=4608, out_features=4096, bias=True)\n    )\n    (deepstack_merger_list): ModuleList(\n      (0-2): 3 x Qwen3VLVisionPatchMerger(\n        (norm): LayerNorm((4608,), eps=1e-06, elementwise_affine=True)\n        (linear_fc1): Linear(in_features=4608, out_features=4608, bias=True)\n        (act_fn): GELU(approximate='none')\n        (linear_fc2): Linear(in_features=4608, out_features=4096, bias=True)\n      )\n    )\n  )\n  (language_model): Qwen3VLTextModel(\n    (embed_tokens): Embedding(151936, 4096)\n    (layers): ModuleList(\n      (0-35): 36 x Qwen3VLTextDecoderLayer(\n        (self_attn): Qwen3VLTextAttention(\n          (q_proj): Linear(in_features=4096, out_features=4096, bias=False)\n          (k_proj): Linear(in_features=4096, out_features=1024, bias=False)\n          (v_proj): Linear(in_features=4096, out_features=1024, bias=False)\n          (o_proj): Linear(in_features=4096, out_features=4096, bias=False)\n          (q_norm): Qwen3VLTextRMSNorm((128,), eps=1e-06)\n          (k_norm): Qwen3VLTextRMSNorm((128,), eps=1e-06)\n        )\n        (mlp): Qwen3VLTextMLP(\n          (gate_proj): Linear(in_features=4096, out_features=12288, bias=False)\n          (up_proj): Linear(in_features=4096, out_features=12288, bias=False)\n          (down_proj): Linear(in_features=12288, out_features=4096, bias=False)\n          (act_fn): SiLUActivation()\n        )\n        (input_layernorm): Qwen3VLTextRMSNorm((4096,), eps=1e-06)\n        (post_attention_layernorm): Qwen3VLTextRMSNorm((4096,), eps=1e-06)\n      )\n    )\n    (norm): Qwen3VLTextRMSNorm((4096,), eps=1e-06)\n    (rotary_emb): Qwen3VLTextRotaryEmbedding()\n  )\n)\n📦 参数量统计:\n总参数量: 8.14 B"
    },
    {
…
 优化建议 (为了 1:1 匹配 Qwen 权重)**：\n如果你希望总的 Attention 层数严格等于 36，你可以调整 Config：\n\n*   **当前**：`num_lower=18`, `num_upper=18` (每组9层SWA+1层HSA -> 共20层Upper) -> 总计 38 层。\n*   **建议**：`num_lower=18`, **`num_upper=16`**。\n    *   这样每组就是 `16 // 2 = 8` 层 SWA。\n    *   每组结构：1 层 HSA + 8 层 SWA = 9 层。\n    *   总层数：18 (Lower) + 2 * 9 (Upper) = **36 层**。\n\n**这样你的模型骨架就和 Qwen3-VL 的 36 层权重完美对应了！HSA 层“取代”了原本在该位置的普通层。**"
    },
    {
      "role": "user",
      "content": "感觉打印的信息不够细节，可以打印成下面的格式类型吗：# 📊 模型结构:\n# Qwen3VLModel(\n#   (visual): Qwen3VLVisionModel(\n#     (patch_embed): Qwen3VLVisionPatchEmbed(\n#       (proj): Conv3d(3, 1152, kernel_size=(2, 16, 16), stride=(2, 16, 16))\n#     )\n#     (pos_embed): Embedding(2304, 1152)\n#     (rotary_pos_emb): Qwen3VLVisionRotaryEmbedding()\n#     (blocks): ModuleList(\n#       (0-26): 27 x Qwen3VLVisionBlock(\n#         (norm1): LayerNorm((1152,), eps=1e-06, elementwise_affine=True)\n#         (norm2): LayerNorm((1152,), eps=1e-06, elementwise_affine=True)\n#         (attn): Qwen3VLVisionAttention(\n#           (qkv): Linear(in_features=1152, out_features=3456, bias=True)\n#           (proj): Linear(in_features=1152, out_features=1152, bias=True)\n#         )\n#         (mlp): Qwen3VLVisionMLP(\n#           (linear_fc1): Linear(in_features=1152, out_features=4304, bias=True)\n#           (linear_fc2): Linear(in_features=4304, out_features=1152, bias=True)\n#           (act_fn): GELUTanh()\n#         )\n#       )\n#     )\n#     (merger): Qwen3VLVisionPatchMerger(\n#       (norm): LayerNorm((1152,), eps=1e-06, elementwise_affine=True)\n#       (linear_fc1): Linear(in_features=4608, out_features=4608, bias=True)\n#       (act_fn): GELU(approximate='none')\n#       (linear_fc2): Linear(in_features=4608, out_features=4096, bias=True)\n#     )\n#     (deepstack_merger_list): ModuleList(\n#       (0-2): 3 x Qwen3VLVisionPatchMerger(\n#         (norm): LayerNorm((4608,), eps=1e-06, elementwise_affine=True)\n#         (linear_fc1): Linear(in_features=4608, out_features=4608, bias=True)\n#         (act_fn): GELU(approximate='none')\n#         (linear_fc2): Linear(in_features=4608, out_features=4096, bias=True)\n#       )\n#     )\n#   )\n#   (language_model): Qwen3VLTextModel(\n#     (embed_tokens): Embedding(151936, 4096)\n#     (layers): ModuleList(\n#       (0-35): 36 x Qwen3VLTextDecoderLayer(\n#         (self_attn): Qwen3VLTextAttention(\n#           (q_proj): Linear(in_features=4096, out_features=4096, bias=False)\n#           (k_proj): Linear(in_features=4096, out_features=1024, bias=False)\n#           (v_proj): Linear(in_features=4096, out_features=1024, bias=False)\n#           (o_proj): Linear(in_features=4096, out_features=4096, bias=False)\n#           (q_norm): Qwen3VLTextRMSNorm((128,), eps=1e-06)\n#           (k_norm): Qwen3VLTextRMSNorm((128,), eps=1e-06)\n#         )\n#         (mlp): Qwen3VLTextMLP(\n#           (gate_proj): Linear(in_features=4096, out_features=12288, bias=False)\n#           (up_proj): Linear(in_features=4096, out_features=12288, bias=False)\n#           (down_proj): Linear(in_features=12288, out_features=4096, bias=False)\n#           (act_fn): SiLUActivation()\n#         )\n#         (input_layernorm): Qwen3VLTextRMSNorm((4096,), eps=1e-06)\n#         (post_attention_layernorm): Qwen3VLTextRMSNorm((4096,), eps=1e-06)\n#       )\n#     )\n#     (norm): Qwen3VLTextRMSNorm((4096,), eps=1e-06)\n#     (rotary_emb): Qwen3VLTextRotaryEmbedding()\n#   )\n# )"
    },
    {
      "role": "assistant",
…
