…
      "role": "assistant",
      "content": "YOLOX 的全称是 You Only Look Once eXtreme。它是一种目标检测算法，能够在高效率的同时实现高精度的对象检测。该算法是在 YOLO（You Only Look Once）系列算法的基础上发展而来的，采用了一系列创新性的技术，包括自适应卷积、特征金字塔网络、锚框去除等，使得 YOLOX 在目标检测领域具有更好的性能表现。"
    },
    {
      "role": "user",
      "content": "yolox-s网络结构图"
    },
    {
      "role": "assistant",
      "content": "以下是 YOLOX-S 的网络结构图：\n\n\n```\n=================================================================\nLayer (type:depth-idx)                   Output Shape         Param #\n=================================================================\n├─Sequential: 1-1                         [-1, 64, 160, 160]   --\n│    └─ConvBnAct: 2-1                     [-1, 32, 320, 320]   864\n│    └─Depthwise: 2-2                     [-1, 32, 320, 320]   288\n│    └─ConvBnAct: 2-3                     [-1, 64, 320, 320]   2,304\n│    └─Depthwise: 2-4                     [-1, 64, 160, 160]   576\n│    └─ConvBnAct: 2-5                     [-1, 64, 160, 160]   4,608\n├─Sequential: 1-2                         [-1, 128, 80, 80]    --\n│    └─Depthwise: 2-6                     [-1, 64, 160, 160]   576\n│    └─ConvBnAct: 2-7                     [-1, 128, 160, 160]  8,192\n│    └─DWConvBnAct: 2-8                   [-1, 128, 80, 80]    1,152\n│    └─ConvBnAct: 2-9                     [-1, 128, 80, 80]    16,384\n├─Sequential: 1-3                         [-1, 256, 40, 40]    --\n│    └─DWConvBnAct: 2-10                  [-1, 128, 80, 80]    1,152\n│    └─ConvBnAct: 2-11                    [-1, 256, 80, 80]    32,768\n│    └─DWConvBnAct: 2-12                  [-1, 256, 40, 40]    2,304\n│    └─ConvBnAct: 2-13                    [-1, 256, 40, 40]    65,536\n├─Sequential: 1-4                         [-1, 512, 20, 20]    --\n│    └─DWConvBnAct: 2-14                  [-1, 256, 40, 40]    2,304\n│    └─ConvBnAct: 2-15                    [-1, 512, 40, 40]    131,072\n│    └─DWConvBnAct: 2-16                  [-1, 512, 20, 20]    4,608\n│    └─ConvBnAct: 2-17                    [-1, 512, 20, 20]    262,144\n│    └─DWConvBnAct: 2-18                  [-1, 512, 10, 10]    9,216\n├─Sequential: 1-5                         [-1, 1024, 10, 10]   --\n│    └─ConvBnAct: 2-19                    [-1, 512, 20, 20]    524,288\n│    └─DWConvBnAct: 2-20                  [-1, 512, 10, 10]    4,608\n│    └─ConvBnAct: 2-21                    [-1, 1024, 10, 10]   524,288\n├─Sequential: 1-6                         [-1, 1024, 10, 10]   --\n│    └─ConvBnAct: 2-22                    [-1, 1024, 10, 10]   9,437,184\n│    └─ConvBnAct: 2-23                    [-1, 1024, 1, 1]     10,485,760\n│    └─ConvBnAct: 2-24                    [-1, 1024, 1, 1]     943,820\n=================================================================\nTotal params: 22,495,236\nTrainable params: 22,495,236\nNon-trainable params: 0\n=================================================================\n``` \n\n其中，ConvBnAct 表示 Convolution（卷积层）+BatchNormalization（批标准化层）+Activation（激活层）；Depthwise 表示深度卷积层；DWConvBnAct 表示深度可分离卷积层+批标准化层+激活层。"
    },
    {
      "role": "user",
      "content": "yolox-s有什么优缺点"
…
