…
      "content": "在深度学习中，Bottleneck 是一种常用的结构，通常用于构建深度残差网络（ResNet）等模型中。Bottleneck 的主要作用是降低模型的计算复杂度和参数数量，同时增加模型的非线性和表示能力。\n\n具体来说，Bottleneck 结构通常由三个部分组成：\n1. 1x1 卷积层（通道缩放）：用于降低输入特征图的通道数，减少计算量。\n2. 3x3 卷积层：用于在空间维度上提取特征，增强模型的表征能力。\n3. 1x1 卷积层（通道还原）：用于增加特征图的通道数，恢复之前降低的通道数，同时用于控制特征图的维度。\n\nBottleneck 结构的主要意义包括：\n1. 降低计算复杂度：通过在Bottleneck结构中使用1x1卷积层减少通道数，减少了计算量，可以加速模型的前向传播和反向传播过程。\n2. 减少参数数量：由于1x1卷积操作会减少和增加特征图的通道数，可以减少参数数量，提高模型的效率和泛化能力。\n3. 增强模型非线性：Bottleneck 结构引入了额外的非线性变换，通过多层卷积和激活函数的组合，增强了模型的表征能力，提升了模型对复杂特征的学习能力。\n\n总的来说，Bottleneck 结构是为了在保持模型性能的同时减少计算量和参数数量而设计的。在现代深度学习中，Bottleneck 结构广泛应用于各种深度卷积神经网络（CNN）中，是提高网络效率和性能的重要组成部分。"
    },
    {
      "role": "user",
      "content": "(m): Sequential(\n        (0): Bottleneck(\n          (cv1): Conv(\n            (conv): Conv2d(128, 128, kernel_size=(1, 1), stride=(1, 1), bias=False)\n            (bn): BatchNorm2d(128, eps=0.001, momentum=0.03, affine=True, track_running_stats=True)\n            (act): SiLU(inplace=True)\n          )\n          (cv2): Conv(\n            (conv): Conv2d(128, 128, kernel_size=(3, 3), stride=(1, 1), padding=(1, 1), bias=False)\n            (bn): BatchNorm2d(128, eps=0.001, momentum=0.03, affine=True, track_running_stats=True)\n            (act): SiLU(inplace=True)\n          )\n        )\n      )\n    )\n    (14): Conv(\n      (conv): Conv2d(256, 128, kernel_size=(1, 1), stride=(1, 1), bias=False)\n      (bn): BatchNorm2d(128, eps=0.001, momentum=0.03, affine=True, track_running_stats=True)\n      (act): SiLU(inplace=True)\n    )\n    (15): Upsample(scale_factor=2.0, mode=nearest)\n    (16): Concat()\n    (17): C3(\n      (cv1): Conv(\n        (conv): Conv2d(256, 64, kernel_size=(1, 1), stride=(1, 1), bias=False)\n        (bn): BatchNorm2d(64, eps=0.001, momentum=0.03, affine=True, track_running_stats=True)\n        (act): SiLU(inplace=True)\n      )\n      (cv2): Conv(\n        (conv): Conv2d(256, 64, kernel_size=(1, 1), stride=(1, 1), bias=False)\n        (bn): BatchNorm2d(64, eps=0.001, momentum=0.03, affine=True, track_running_stats=True)\n        (act): SiLU(inplace=True)\n      )\n      (cv3): Conv(\n        (conv): Conv2d(128, 128, kernel_size=(1, 1), stride=(1, 1), bias=False)\n        (bn): BatchNorm2d(128, eps=0.001, momentum=0.03, affine=True, track_running_stats=True)\n        (act): SiLU(inplace=True)\n      )\nm的输出形如上市，该怎样改进我的判断代码"
    },
    {
      "role": "assistant",
      "content": "根据给出的模型输出，如果您想要判断模型中的 Bottleneck 层以便对其进行特定的操作，您可以尝试以下方法：\n\n1. 遍历模型中的每个模块，并且判断一个模块是否为 Bottleneck 层：\n```python\nfor name, module in model.named_modules():\n    if isinstance(module, nn.Sequential):\n      
…
