…
`。可能需要检查为什么 `_group_param_by_load_spec` 迭代到了 `vision_tower` 的参数。如果该参数不需要更新，应该在迭代时跳过它，而不是抛出错误。\n\n**总结：这不是硬件坏了或单纯的内存不足，而是代码在尝试更新一个“它找不到映射关系”的参数（视觉模型的权重），导致程序崩溃。**"
    },
    {
      "role": "user",
      "content": "请你告诉我训练的模型的参数信息：[XTuner][RANK 0][2026-01-06 09:12:12][INFO][TrainingWorker] Freeze vision tower\n[XTuner][RANK 0][2026-01-06 09:12:12][INFO][TrainingWorker] Freeze multi modal projector\n[XTuner][RANK 0][2026-01-06 09:12:13][INFO][TrainingWorker] FSDPQwen3VLForConditionalGeneration(\n  (vision_tower): FSDPQwen3VLVisionModel(\n    (patch_embed): Qwen3VLVisionPatchEmbed(\n      (proj): Conv3d(3, 1152, kernel_size=(2, 16, 16), stride=(2, 16, 16))\n    )\n    (pos_embed): Embedding(2304, 1152)\n    (rotary_pos_emb): Qwen3VLVisionRotaryEmbedding()\n    (blocks): ModuleList(\n      (0-26): 27 x FSDPCheckpointWrapper(\n        (_checkpoint_wrapped_module): Qwen3VLVisionLayer(\n          (norm1): LayerNorm((1152,), eps=1e-06, elementwise_affine=True)\n          (norm2): LayerNorm((1152,), eps=1e-06, elementwise_affine=True)\n          (attn): Qwen3VLVisionAttention(\n            (qkv): Linear(in_features=1152, out_features=3456, bias=True)\n            (proj): Linear(in_features=1152, out_features=1152, bias=True)\n          )\n          (mlp): Qwen3VLVisionMLP(\n            (linear_fc1): Linear(in_features=1152, out_features=4304, bias=True)\n            (linear_fc2): Linear(in_features=4304, out_features=1152, bias=True)\n          )\n        )\n      )\n    )\n  )\n  (multi_modal_projector): FSDPQwen3VLProjector(\n    (merger): Qwen3VLVisionPatchMerger(\n      (norm): LayerNorm((1152,), eps=1e-06, elementwise_affine=True)\n      (linear_fc1): Linear(in_features=4608, out_features=4608, bias=True)\n      (linear_fc2): Linear(in_features=4608, out_features=4096, bias=True)\n    )\n    (deepstack_merger_list): ModuleList(\n      (0-2): 3 x Qwen3VLVisionPatchMerger(\n        (norm): LayerNorm((4608,), eps=1e-06, elementwise_affine=True)\n        (linear_fc1): Linear(in_features=4608, out_features=4608, bias=True)\n        (linear_fc2): Linear(in_features=4608, out_features=4096, bias=True)\n      )\n    )\n  )\n  (language_model): FSDPQwen3VLTextDense(\n    (norm): FSDPRMSNorm((4096,), eps=1e-06)\n    (lm_head): FSDPLMHead(in_features=4096, out_features=151936, bias=False)\n    (layers): ModuleDict(\n      (0): FSDPCheckpointWrapper(\n        (_checkpoint_wrapped_module): DenseDecoderLayer(\n          (self_attn): MultiHeadAttention(\n
…
