…
l`) 之后。\n\n*   **数据流**：\n    `Vision Encoder (1152)` -> `Merger (Projector: 1152->4096)` -> **`hidden_states (4096)`**\n*   **你的操作**：\n    `hidden_states (4096)` -> **`Causal Module (输入4096 -> 输出4096)`** -> `Token Selection`\n*   **最终输出**：\n    `video_embeds (4096)` -> 返回给主模型 -> `masked_scatter` (完美匹配)\n\n**最终结论：**\n你的因果模块初始化的 `hidden_size` 参数，**必须**设置为 `config.out_hidden_size`。在实际运行时，它就是 4096。不用担心默认值 3584，它会被覆盖。"
    },
    {
      "role": "user",
      "content": "你看下面的模型结构，3584好像一直存在，也有4096，可以帮助你回答我之前的疑惑吗：VideoChatFlashQwenForCausalLM(\n  (model): VideoChatFlashQwenModel(\n    (embed_tokens): Embedding(152064, 3584)\n    (layers): ModuleList(\n      (0): Qwen2MLADecoderLayer(\n        (self_attn): MLAAttention(\n          (q_proj): Linear(in_features=3584, out_features=7168, bias=True)\n          (kv_a_proj_with_mqa): Linear(in_features=3584, out_features=768, bias=True)\n          (kv_b_proj): Linear(in_features=640, out_features=7168, bias=False)\n          (o_proj): Linear(in_features=3584, out_features=3584, bias=False)\n        )\n        (mlp): Qwen2MLP(\n          (gate_proj): Linear(in_features=3584, out_features=18944, bias=False)\n          (up_proj): Linear(in_features=3584, out_features=18944, bias=False)\n          (down_proj): Linear(in_features=18944, out_features=3584, bias=False)\n          (act_fn): SiLUActivation()\n        )\n        (input_layernorm): Qwen2RMSNorm((3584,), eps=1e-05)\n        (post_attention_layernorm): Qwen2RMSNorm((3584,), eps=1e-05)\n      )\n      (1): Qwen2MLADecoderLayer(\n        (self_attn): MLAAttention(\n          (q_proj): Linear(in_features=3584, out_features=7168, bias=True)\n          (kv_a_proj_with_mqa): Linear(in_features=3584, out_features=384, bias=True)\n          (kv_b_proj): Linear(in_features=256, out_features=7168, bias=False)\n          (o_proj): Linear(in_features=3584, out_features=3584, bias=False)\n        )\n        (mlp): Qwen2MLP(\n          (gate_proj): Linear(in_features=3584, out_features=18944, bias=False)\n          (up_proj): Linear(in_features=3584, out_features=18944, bias=False)\n          (down_proj): Linear(in_features=18944, out_features=3584, bias=False)\n          (act_fn): SiLUActivation()\n        )\n        (input_layernorm): Qwen2RMSNorm((3584,), eps=1e-05)\n        (post_attention_layernorm): Qwen2RMSNorm((3584,), eps=1e-05)\n      )\n      (2): Qwen2MLADecoderLayer(\n        (self_attn): MLAAttention(\n          (q_proj): Linear(in_features=3584, out_features=7168, bias=True)\n          (kv_a_proj_with_mqa): Linear(in_features=3584, out_features=512, bias=True)\n          (kv_b_proj): Linear(in_features=384, out_features=7168, bias=False)\n          (o_proj): Linear(in_features=3584, out_features=3584, bias=False)\n        )\n        (mlp): Qwen2MLP(\n          (gate_proj): Linear(in_features=3584, out_features=18944, bias=False)\n          (up_proj): Linear(in_features=3584, out_features=18944, bias=False)\n          (down_proj): Linear(in_features=18944, out_features=3584, bias=False)\n          (act_fn): SiLUActivation()\n        )\n        (input_layernorm): Qwen2RMSNorm((3584,), eps=1e-05)\n        (post_attention_layernorm): Qwen2RMSNorm((3584,), eps=1e-05)\n      )\n      (3-4): 2 x Qwen2MLADecoderLayer(\n        (self_attn): MLAAttention(\n          (q_proj): Linear(in_features=3584, out_features=7168, bias=True)\n          (kv_a_proj_with_mqa): Linear(in_features=3584, out_features=576, bias=True)\n          (kv_b_proj): Linear(in_features=448, out_features=7168, bias=False)\n          (o_proj): Linear(in_features=3584, out_features=3584, bias=False)\n        )\n        (mlp): Qwen2MLP(\n          (gate_proj): Linear(in_features=3584, out_features=18944, bias=False)\n          (up_proj): Linear(in_features=3584, out_features=18944, bias=False)\n          (down_proj): Linear(in_features=18944, out_features=3584, bias=False)\n          (act_fn): SiLUActivation()\n        )\n        (input_layernorm): Qwen2RMSNorm((3584,), eps=1e-05)\n        (post_attention_layernorm): Qwen2RMSNorm((3584,), eps=1e-05)\n      )\n      (5): Qwen2MLADecoderLayer(\n        (self_attn): MLAAttention(\n          (q_proj): Linear(in_features=3584, out_features=7168, bias=True)\n          (kv_a_proj_with_mqa): Linear(in_features=3584, out_features=512, bias=True)\n          (kv_b_proj): Linear(in_features=384, out_features=7168, bias=False)\n          (o_proj): Linear(in_features=3584, out_features=3584, bias=False)\n        )\n        (mlp): Qwen2MLP(\n          (gate_proj): Linear(in_features=3584, out_features=18944, bias=False)\n          (up_proj): Linear(in_features=3584, out_features=18944, bias=False)\n          (down_proj): Linear(in_features=18944, out_features=3584, bias=False)\n          (act_fn): SiLUActivation()\n        )\n        (input_layernorm): Qwen2RMSNorm((3584,), eps=1e-05)\n        (post_attention_layernorm): Qwen2RMSNorm((3584,), eps=1e-05)\n      )\n      (6): Qwen2MLADecoderLayer(\n        (self_attn): MLAAttention(\n          (q_proj): Linear(in_features=3584, out_features=7168, bias=True)\n          (kv_a_proj_with_mqa): Linear(in_features=3584, out_features=576, bias=True)\n          (kv_b_proj): Linear(in_features=448, out_features=7168, bias=False)\n          (o_proj): Linear(in_features=3584, out_features=3584, bias=False)\n        )\n        (mlp): Qwen2MLP(\n          (gate_proj): Linear(in_features=3584, out_features=18944, bias=False)\n          (up_proj): Linear(in_features=3584, out_features=18944, bias=False)\n          (down_proj): Linear(in_features=18944, out_features=3584, bias=False)\n          (act_fn): SiLUActivation()\n        )\n        (input_layernorm): Qwen2RMSNorm((3584,), eps=1e-05)\n        (post_attention_layernorm): Qwen2RMSNorm((3584,), eps=1e-05)\n      )\n      (7): Qwen2MLADecoderLayer(\n        (self_attn): MLAAttention(\n          (q_proj): Linear(in_features=3584, out_features=7168, bias=True)\n          (kv_a_proj_with_mqa): Linear(in_features=3584, out_features=512, bias=True)\n          (kv_b_proj): Linear(in_features=384, out_features=7168, bias=False)\n          (o_proj): Linear(in_features=3584, out_features=3584, bias=False)\n        )\n        (mlp): Qwen2MLP(\n          (gate_proj): Linear(in_features=3584, out_features=18944, bias=False)\n          (up_proj): Linear(in_features=3584, out_features=18944, bias=False)\n          (down_proj): Linear(in_features=18944, out_features=3584, bias=False)\n          (act_fn): SiLUActivation()\n        )\n        (input_layernorm): Qwen2RMSNorm((3584,), eps=1e-05)\n        (post_attention_layernorm): Qwen2RMSNorm((3584,), eps=1e-05)\n      )\n      (8-10): 3 x Qwen2MLADecoderLayer(\n        (self_attn): MLAAttention(\n          (q_proj): Linear(in_features=3584, out_features=7168, bias=True)\n          (kv_a_proj_with_mqa): Linear(in_features=3584, out_features=640, bias=True)\n          (kv_b_proj): Linear(in_features=512, out_features=7168, bias=False)\n          (o_proj): Linear(in_features=3584, out_features=3584, bias=False)\n        )\n        (mlp): Qwen2MLP(\n          (gate_proj): Linear(in_features=3584, out_features=18944, bias=False)\n          (up_proj): Linear(in_features=3584, out_features=18944, bias=False)\n          (down_proj): Linear(in_features=18944, out_features=3584, bias=False)\n          (act_fn): SiLUActivation()\n        )\n        (input_layernorm): Qwen2RMSNorm((3584,), eps=1e-05)\n        (post_attention_layernorm): Qwen2RMSNorm((3584,), eps=1e-05)\n      )\n      (11-12): 2 x Qwen2MLADecoderLayer(\n        (self_attn): MLAAttention(\n          (q_proj): Linear(in_features=3584, out_features=7168, bias=True)\n          (kv_a_proj_with_mqa): Linear(in_features=3584, out_features=512, bias=True)\n          (kv_b_proj): Linear(in_features=384, out_features=7168, bias=False)\n          (o_proj): Linear(in_features=3584, out_features=3584, bias=False)\n        )\n        (mlp): Qwen2MLP(\n          (gate_proj): Linear(in_features=3584, out_features=18944, bias=False)\n          (up_proj): Linear(in_features=3584, out_features=18944, bias=False)\n          (down_proj): Linear(in_features=18944, out_features=3584, bias=False)\n          (act_fn): SiLUActivation()\n        )\n        (input_layernorm): Qwen2RMSNorm((3584,), eps=1e-05)\n        (post_attention_layernorm): Qwen2RMSNorm((3584,), eps=1e-05)\n      )\n      (13-14): 2 x Qwen2MLADecoderLayer(\n        (self_attn): MLAAttention(\n          (q_proj): Linear(in_features=3584, out_features=7168, bias=True)\n          (kv_a_proj_with_mqa): Linear(in_features=3584, out_features=640, bias=True)\n          (kv_b_proj): Linear(in_features=512, out_features=7168, bias=False)\n          (o_proj): Linear(in_features=3584, out_features=3584, bias=False)\n        )\n        (mlp): Qwen2MLP(\n          (gate_proj): Linear(in_features=3584, out_features=18944, bias=False)\n          (up_proj): Linear(in_features=3584, out_features=18944, bias=False)\n          (down_proj): Linear(in_features=18944, out_features=3584, bias=False)\n          (act_fn): SiLUActivation()\n        )\n        (input_layernorm): Qwen2RMSNorm((3584,), eps=1e-05)\n        (post_attention_layernorm): Qwen2RMSNorm((3584,), eps=1e-05)\n      )\n      (15-17): 3 x Qwen2MLADecoderLayer(\n        (self_attn): MLAAttention(\n          (q_proj): Linear(in_features=3584, out_features=7168, bias=True)\n          (kv_a_proj_with_mqa): Linear(in_features=3584, out_features=512, bias=True)\n          (kv_b_proj): Linear(in_features=384, out_features=7168, bias=False)\n          (o_proj): Linear(in_features=3584, out_features=3584, bias=False)\n        )\n        (mlp): Qwen2MLP(\n          (gate_proj): Linear(in_features=3584, out_features=18944, bias=False)\n          (up_proj): Linear(in_features=3584, out_features=18944, bias=False)\n          (down_proj): Linear(in_features=18944, out_features=3584, bias=False)\n          (act_fn): SiLUActivation()\n        )\n        (input_layernorm): Qwen2RMSNorm((3584,), eps=1e-05)\n        (post_attention_layernorm): Qwen2RMSNorm((3584,), eps=1e-05)\n      )\n      (18-19): 2 x Qwen2MLADecoderLayer(\n        (self_attn): MLAAttention(\n          (q_proj): Linear(in_features=3584, out_features=7168, bias=True)\n          (kv_a_proj_with_mqa): Linear(in_features=3584, out_features=640, bias=True)\n          (kv_b_proj): Linear(in_features=512, out_features=7168, bias=False)\n          (o_proj): Linear(in_features=3584, out_features=3584, bias=False)\n        )\n        (mlp): Qwen2MLP(\n          (gate_proj): Linear(in_features=3584, out_features=18944, bias=False)\n          (up_proj): Linear(in_features=3584, out_features=18944, bias=False)\n          (down_proj): Linear(in_features=18944, out_features=3584, bias=False)\n          (act_fn): SiLUActivation()\n        )\n        (input_layernorm): Qwen2RMSNorm((3584,), eps=1e-05)\n        (post_attention_layernorm): Qwen2RMSNorm((3584,), eps=1e-05)\n      )\n      (20): Qwen2MLADecoderLayer(\n        (self_attn): MLAAttention(\n          (q_proj): Linear(in_features=3584, out_features=7168, bias=True)\n          (kv_a_proj_with_mqa): Linear(in_features=3584, out_features=512, bias=True)\n          (kv_b_proj): Linear(in_features=384, out_features=7168, bias=False)\n          (o_proj): Linear(in_features=3584, out_features=3584, bias=False)\n        )\n        (mlp): Qwen2MLP(\n          (gate_proj): Linear(in_features=3584, out_features=18944, bias=False)\n          (up_proj): Linear(in_features=3584, out_features=18944, bias=False)\n          (down_proj): Linear(in_features=18944, out_features=3584, bias=False)\n          (act_fn): SiLUActivation()\n        )\n        (input_layernorm): Qwen2RMSNorm((3584,), eps=1e-05)\n        (post_attention_layernorm): Qwen2RMSNorm((3584,), eps=1e-05)\n      )\n      (21): Qwen2MLADecoderLayer(\n        (self_attn): MLAAttention(\n          (q_proj): Linear(in_features=3584, out_features=7168, bias=True)\n          (kv_a_proj_with_mqa): Linear(in_features=3584, out_features=384, bias=True)\n          (kv_b_proj): Linear(in_features=256, out_features=7168, bias=False)\n          (o_proj): Linear(in_features=3584, out_features=3584, bias=False)\n        )\n        (mlp): Qwen2MLP(\n          (gate_proj): Linear(in_features=3584, out_features=18944, bias=False)\n          (up_proj): Linear(in_features=3584, out_features=18944, bias=False)\n          (down_proj): Linear(in_features=18944, out_features=3584, bias=False)\n          (act_fn): SiLUActivation()\n        )\n        (input_layernorm): Qwen2RMSNorm((3584,), eps=1e-05)\n        (post_attention_layernorm): Qwen2RMSNorm((3584,), eps=1e-05)\n      )\n      (22): Qwen2MLADecoderLayer(\n        (self_attn): MLAAttention(\n          (q_proj): Linear(in_features=3584, out_features=7168, bias=True)\n          (kv_a_proj_with_mqa): Linear(in_features=3584, out_features=576, bias=True)\n          (kv_b_proj): Linear(in_features=448, out_features=7168, bias=False)\n          (o_proj): Linear(in_features=3584, out_features=3584, bias=False)\n        )\n        (mlp): Qwen2MLP(\n          (gate_proj): Linear(in_features=3584, out_features=18944, bias=False)\n          (up_proj): Linear(in_features=3584, out_features=18944, bias=False)\n          (down_proj): Linear(in_features=18944, out_features=3584, bias=False)\n          (act_fn): SiLUActivation()\n        )\n        (input_layernorm): Qwen2RMSNorm((3584,), eps=1e-05)\n        (post_attention_layernorm): Qwen2RMSNorm((3584,), eps=1e-05)\n      )\n      (23): Qwen2MLADecoderLayer(\n        (self_attn): MLAAttention(\n          (q_proj): Linear(in_features=3584, out_features=7168, bias=True)\n          (kv_a_proj_with_mqa): Linear(in_features=3584, out_features=512, bias=True)\n          (kv_b_proj): Linear(in_features=384, out_features=7168, bias=False)\n          (o_proj): Linear(in_features=3584, out_features=3584, bias=False)\n        )\n        (mlp): Qwen2MLP(\n          (gate_proj): Linear(in_features=3584, out_features=18944, bias=False)\n          (up_proj): Linear(in_features=3584, out_features=18944, bias=False)\n          (down_proj): Linear(in_features=18944, out_features=3584, bias=False)\n          (act_fn): SiLUActivation()\n        )\n        (input_layernorm): Qwen2RMSNorm((3584,), eps=1e-05)\n        (post_attention_layernorm): Qwen2RMSNorm((3584,), eps=1e-05)\n      )\n      (24): Qwen2MLADecoderLayer(\n        (self_attn): MLAAttention(\n          (q_proj): Linear(in_features=3584, out_features=7168, bias=True)\n          (kv_a_proj_with_mqa): Linear(in_features=3584, out_features=384, bias=True)\n          (kv_b_proj): Linear(in_features=256, out_features=7168, bias=False)\n          (o_proj): Linear(in_features=3584, out_features=3584, bias=False)\n        )\n        (mlp): Qwen2MLP(\n          (gate_proj): Linear(in_features=3584, out_features=18944, bias=False)\n          (up_proj): Linear(in_features=3584, out_features=18944, bias=False)\n          (down_proj): Linear(in_features=18944, out_features=3584, bias=False)\n          (act_fn): SiLUActivation()\n        )\n        (input_layernorm): Qwen2RMSNorm((3584,), eps=1e-05)\n        (post_attention_layernorm): Qwen2RMSNorm((3584,), eps=1e-05)\n      )\n      (25): Qwen2MLADecoderLayer(\n        (self_attn): MLAAttention(\n          (q_proj): Linear(in_features=3584, out_features=7168, bias=True)\n          (kv_a_proj_with_mqa): Linear(in_features=3584, out_features=512, bias=True)\n          (kv_b_proj): Linear(in_features=384, out_features=7168, bias=False)\n          (o_proj): Linear(in_features=3584, out_features=3584, bias=False)\n        )\n        (mlp): Qwen2MLP(\n          (gate_proj): Linear(in_features=3584, out_features=18944, bias=False)\n          (up_proj): Linear(in_features=3584, out_features=18944, bias=False)\n          (down_proj): Linear(in_features=18944, out_features=3584, bias=False)\n          (act_fn): SiLUActivation()\n        )\n        (input_layernorm): Qwen2RMSNorm((3584,), eps=1e-05)\n        (post_attention_layernorm): Qwen2RMSNorm((3584,), eps=1e-05)\n      )\n      (26-27): 2 x Qwen2MLADecoderLayer(\n        (self_attn): MLAAttention(\n          (q_proj): Linear(in_features=3584, out_features=7168, bias=True)\n          (kv_a_proj_with_mqa): Linear(in_features=3584, out_features=384, bias=True)\n          (kv_b_proj): Linear(in_features=256, out_features=7168, bias=False)\n          (o_proj): Linear(in_features=3584, out_features=3584, bias=False)\n        )\n        (mlp): Qwen2MLP(\n          (gate_proj): Linear(in_features=3584, out_features=18944, bias=False)\n          (up_proj): Linear(in_features=3584, out_features=18944, bias=False)\n          (down_proj): Linear(in_features=18944, out_features=3584, bias=False)\n          (act_fn): SiLUActivation()\n        )\n        (input_layernorm): Qwen2RMSNorm((3584,), eps=1e-05)\n        (post_attention_layernorm): Qwen2RMSNorm((3584,), eps=1e-05)\n      )\n    )\n    (norm): Qwen2RMSNorm((3584,), eps=1e-05)\n    (rotary_emb): Qwen2RotaryEmbedding()\n    (vision_tower): UMTVisionTower(\n      (vision_tower): PretrainVisionTransformer(\n        (encoder): PretrainVisionTransformerEncoder(\n          (patch_embed): PatchEmbed(\n            (proj): Conv3d(3, 1024, kernel_size=(1, 16, 16), stride=(1, 16, 16))\n          )\n          (blocks): ModuleList(\n            (0-22): 23 x Block(\n              (norm1): LayerNorm((1024,), eps=1e-06, elementwise_affine=True)\n              (attn): Attention(\n                (qkv): Linear(in_features=1024, out_features=3072, bias=False)\n                (proj): Linear(in_features=1024, out_features=1024, bias=True)\n                (proj_drop): Dropout(p=0.0, inplace=False)\n              )\n              (drop_path): Identity()\n              (norm2): LayerNorm((1024,), eps=1e-06, elementwise_affine=True)\n              (mlp): Mlp(\n                (fc1): Linear(in_features=1024, out_features=4096, bias=True)\n                (act): GELU(approximate='none')\n                (fc2): Linear(in_features=4096, out_features=1024, bias=True)\n                (drop): Dropout(p=0.0, inplace=False)"
    },
    {
      "role": "assistant",
      "content": "这就破案了！这张结构图非常清楚地揭示了真相。\n\n**结论是：你的这个模型（VideoChatFlashQwen / Qwen2-VL-7B 架构），其 LLM 的核心维度（Hidden Size）就是 3584，而不是 4096。**\n\n之前看到的 `4096` 只是 `Qwen3VLTextConfig` 类定义里的**默认参数**（default value），但你加载的这个具体模型权重，配置是 **3584**。\n\n让我们对照你提供的结构图来彻底梳理一下：\n\n### 1. 语言模型（LLM）侧：全是 3584\n请看结构图的这一部分：\n\n```text\n(model): VideoChatFlashQwenModel(\n  (embed_tokens): Embedding(152064, 3584)  <-- 入口：Token Embedding 维度是 3584\n  (layers): ModuleList(\n    (0): Qwen2MLADecoderLayer(\n      (self_attn): MLAAttention(\n        (q_proj): Linear(in_features=3584, ...\n        (o_proj): Linear(..., out_features=3584, bias=False) <-- 出口：Attention 输出回 3584\n      )\n      (mlp): Qwen2MLP(\n         ...\n         (down_proj): Linear(..., out_features=3584, bias=False) <-- MLP 输出回 3584\n      )\n      (input_layernorm): Qwen2RMSNorm((3584,), eps=1e-05) <-- Norm 层也是 3584\n```\n\n**铁证如山**：这个 LLM 的“血管”里流淌的特征向量，宽度就是 **3584**。任何输入给它的视觉特征，维度必须也是 **3584**，否则 `masked_scatter` 根本插不进去。\n\n### 2. 视觉模型（Vision）侧：内部 1024 -> 输出 ?\n再看结构图的下半部分：\n\n```text\n(vision_tower): UMTVisionTower(\n  (vision_tower): PretrainVisionTransformer(\n    (encoder): PretrainVisionTransformerEncoder(\n      (patch_embed): PatchEmbed(\n        (proj): Conv3d(3, 1024, ...)  <-- 视觉特征起始维度是 1024\n      )\n      (blocks): ModuleList(\n        (0-22): 23 x Block(\n          (norm1): LayerNorm((1024,), ...) <-- Transformer Block 内部维持 1024\n          (mlp): Mlp(\n            (fc1): Linear(in_features=1024, ...)\n```\n\n这里显示 Vision Tower 内部处理的是 **1024** 维的特征。\n虽然截图里没显示 `Merger` 层，但结合你之前的代码：\n\n```python\nclass Qwen3VLVisionPatchMerger(...):\n    # ...\n    self.linear_fc2 = nn.Linear(self.hidden_size, config.out_hidden_size)\n```\n\n**连接逻辑是：**\n1.  Vision 内部计算：**1024**\n2.  Merger (拼接 + 投影)：1024 * 4 = 4096 -> 映射到 `out_hidden_size`\n3.  这个 `out_hidden_size` 在你的模型配置里被设为了 **3584**。\n4.
…
